name: "CaffeNet"
layer {
  name: 'data'
  type: 'Python'
  top: 'im_data'
  top: 'txt_data'
  top: 'im_rois'
  top: 'txt_rois'
  top: 'bbox_targets'
  top: 'bbox_loss_weights'
  python_param {
    module: 'roi_data_layer.DOM_regres_layer'
    layer: 'DOMRegresDataLayer'
    param_str: "'num_classes': 4"
  }
}
layer {
  name: "conv1"
  type: "Convolution"
  bottom: "im_data"
  top: "conv1"
  param {
    lr_mult: 0
    decay_mult: 0
  }
  param {
    lr_mult: 0
    decay_mult: 0
  }
  convolution_param {
    num_output: 96
    kernel_size: 11
    pad: 5
    stride: 4
  }
}
layer {
  name: "relu1"
  type: "ReLU"
  bottom: "conv1"
  top: "conv1"
}
layer {
  name: "pool1"
  type: "Pooling"
  bottom: "conv1"
  top: "pool1"
  pooling_param {
    pool: MAX
    kernel_size: 3
    pad: 1
    stride: 2
  }
}
layer {
  name: "norm1"
  type: "LRN"
  bottom: "pool1"
  top: "norm1"
  lrn_param {
    local_size: 5
    alpha: 0.0001
    beta: 0.75
  }
}
layer {
  name: "my_conv2"
  type: "Convolution"
  bottom: "norm1"
  top: "my_conv2"
  param {
    lr_mult: 1
    decay_mult: 1
  }
  param {
    lr_mult: 2
    decay_mult: 0
  }
  convolution_param {
    num_output: 256
    kernel_size: 5
    pad: 2
    weight_filler {
      type: "gaussian"
      std: 0.01
    }
    bias_filler {
      type: "constant"
      value: 0.1
    }
  }
}
layer {
  name: "relu2"
  type: "ReLU"
  bottom: "my_conv2"
  top: "my_conv2"
}
layer {
  name: "pool2"
  type: "Pooling"
  bottom: "my_conv2"
  top: "pool2"
  pooling_param {
    pool: MAX
    kernel_size: 3
    pad: 1
    stride: 2
  }
}
layer {
  name: "norm2"
  type: "LRN"
  bottom: "pool2"
  top: "norm2"
  lrn_param {
    local_size: 5
    alpha: 0.0001
    beta: 0.75
  }
}
layer {
  name: "my_conv3"
  type: "Convolution"
  bottom: "norm2"
  top: "my_conv3"
  param {
    lr_mult: 1
    decay_mult: 1
  }
  param {
    lr_mult: 2
    decay_mult: 0
  }
  convolution_param {
    num_output: 384
    kernel_size: 3
    pad: 1
    weight_filler {
      type: "gaussian"
      std: 0.01
    }
    bias_filler {
      type: "constant"
      value: 0
    }
  }
}
layer {
  name: "relu3"
  type: "ReLU"
  bottom: "my_conv3"
  top: "my_conv3"
}
layer {
  name: "my_conv4"
  type: "Convolution"
  bottom: "my_conv3"
  top: "my_conv4"
  param {
    lr_mult: 1
    decay_mult: 1
  }
  param {
    lr_mult: 2
    decay_mult: 0
  }
  convolution_param {
    num_output: 384
    kernel_size: 3
    pad: 1
    weight_filler {
      type: "gaussian"
      std: 0.01
    }
    bias_filler {
      type: "constant"
      value: 0.1
    }
  }
}
layer {
  name: "relu4"
  type: "ReLU"
  bottom: "my_conv4"
  top: "my_conv4"
}
layer {
  name: "my_conv5"
  type: "Convolution"
  bottom: "my_conv4"
  top: "my_conv5"
  param {
    lr_mult: 1
    decay_mult: 1
  }
  param {
    lr_mult: 2
    decay_mult: 0
  }
  convolution_param {
    num_output: 256
    kernel_size: 3
    pad: 1
    weight_filler {
      type: "gaussian"
      std: 0.01
    }
    bias_filler {
      type: "constant"
      value: 0.1
    }
  }
}
layer {
  name: "relu5"
  type: "ReLU"
  bottom: "my_conv5"
  top: "my_conv5"
}
layer {
  name: "roi_pool5"
  type: "ROIPooling"
  bottom: "my_conv5"
  bottom: "im_rois"
  top: "im_pool5"
  roi_pooling_param {
    pooled_w: 24
    pooled_h: 24
    spatial_scale: 0.0625 # 1/16
  }
}
layer {
  name: "txt_conv1"
  type: "Convolution"
  bottom: "txt_data"
  top: "txt_conv1"
  param {
    lr_mult: 1
    decay_mult: 1
  }
  param {
    lr_mult: 2
    decay_mult: 0
  }
  convolution_param {
    num_output: 48
    kernel_size: 5
    pad: 2
    stride: 2
  }
}
layer {
  name: "relu_txt_1"
  type: "ReLU"
  bottom: "txt_conv1"
  top: "txt_conv1"
}
layer {
  name: "txt_conv2"
  type: "Convolution"
  bottom: "txt_conv1"
  top: "txt_conv2"
  param {
    lr_mult: 1
    decay_mult: 1
  }
  param {
    lr_mult: 2
    decay_mult: 0
  }
  convolution_param {
    num_output: 96
    kernel_size: 3
    pad: 1
  }
}
layer {
  name: "relu_txt_2"
  type: "ReLU"
  bottom: "txt_conv2"
  top: "txt_conv2"
}
layer {
  name: "txt_conv3"
  type: "Convolution"
  bottom: "txt_conv2"
  top: "txt_conv3"
  param {
    lr_mult: 1
    decay_mult: 1
  }
  param {
    lr_mult: 2
    decay_mult: 0
  }
  convolution_param {
    num_output: 38
    kernel_size: 3
    pad: 1
  }
}
layer {
  name: "relu_txt_3"
  type: "ReLU"
  bottom: "txt_conv3"
  top: "txt_conv3"
}
layer {
  name: "txt_pool"
  type: "ROIPooling"
  bottom: "txt_conv3"
  bottom: "txt_rois"
  top: "txt_pool"
  roi_pooling_param {
    pooled_w: 24
    pooled_h: 24
    spatial_scale: 0.5 # 1/2
  }
}
layer {
  name: "concat"
  bottom: "im_pool5"
  bottom: "txt_pool"
  top: "concat"
  type: "Concat"
  concat_param {
    axis: 1
  }
}
layer {
  name: "DOM_fc6"
  type: "InnerProduct"
  bottom: "concat"
  top: "DOM_fc6"
  param {
    lr_mult: 1
    decay_mult: 1
  }
  param {
    lr_mult: 2
    decay_mult: 0
  }
  inner_product_param {
    num_output: 256
    weight_filler {
      type: "gaussian"
      std: 0.01
    }
    bias_filler {
      type: "constant"
      value: 0
    }
  }
}
layer {
  name: "relu6"
  type: "ReLU"
  bottom: "DOM_fc6"
  top: "DOM_fc6"
}
layer {
  name: "drop6"
  type: "Dropout"
  bottom: "DOM_fc6"
  top: "DOM_fc6"
  dropout_param {
    dropout_ratio: 0.5
  }
}
layer {
  name: "DOM_fc7"
  type: "InnerProduct"
  bottom: "DOM_fc6"
  top: "DOM_fc7"
  param {
    lr_mult: 1
    decay_mult: 1
  }
  param {
    lr_mult: 2
    decay_mult: 0
  }
  inner_product_param {
    num_output: 256
    weight_filler {
      type: "gaussian"
      std: 0.01
    }
    bias_filler {
      type: "constant"
      value: 0
    }
  }
}
layer {
  name: "relu7"
  type: "ReLU"
  bottom: "DOM_fc7"
  top: "DOM_fc7"
}
layer {
  name: "drop7"
  type: "Dropout"
  bottom: "DOM_fc7"
  top: "DOM_fc7"
  dropout_param {
    dropout_ratio: 0.5
  }
}
layer {
  name: "bbox_pred"
  type: "InnerProduct"
  bottom: "DOM_fc7"
  top: "bbox_pred"
  param {
    lr_mult: 1
    decay_mult: 1
  }
  param {
    lr_mult: 2
    decay_mult: 0
  }
  inner_product_param {
    num_output: 16
    weight_filler {
      type: "gaussian"
      std: 0.001
    }
    bias_filler {
      type: "constant"
      value: 0
    }
  }
}
layer {
  name: "loss_bbox"
  type: "SmoothL1Loss"
  bottom: "bbox_pred"
  bottom: "bbox_targets"
  bottom: "bbox_loss_weights"
  top: "loss_bbox"
  loss_weight: 1
}
